2_generator_B2A.pth (torch, 85456 bytes, 4 tensors)

main.0.weight f4 [64, 6, 3, 3, 3]
000000 da 87 38 3c a7 e4 03 3d 18 82 ff 3c 58 4f 6a 3d
       0.011262858 0.03220048 0.031189963 0.057204574
000010 63 82 05 be 20 dd 54 3c fe 41 d8 39 8a 6d 3b 3d
       -0.1303802 0.012992173 0.00041247898 0.04575876
000020 79 ee ae 3c b7 91 d2 bc 85 b3 5a bc d0 1d b5 bc
       0.021353947 -0.025704248 -0.013348465 -0.022108942
000030 87 c9 94 bd fd 6e ec bd 9b a9 ad bd c4 47 02 3c
       -0.07265001 -0.11544607 -0.08479615 0.007951681
000040 49 af 16 bd 8c 4a 09 3d 05 46 33 bc a3 27 cf bd
       -0.03678826 0.03351836 -0.010941987 -0.10114982
000050 6a b8 13 bc 23 69 4a bc 34 27 b4 bc cc f6 80 bd
       -0.009016136 -0.012354168 -0.02199135 -0.06297073
000060 8a e0 ab bc 50 67 ee bd 00 1d 86 3b f4 44 13 bd
       -0.020981092 -0.11640799 0.0040928125 -0.03595443
000070 57 6e b7 3c 3a b4 2c bb 63 d6 1e 3c 90 80 a7 bd
       0.022391481 -0.002635254 0.009694668 -0.08178818
000080 92 d4 86 bb 89 a5 d3 bb db 40 31 bd 27 96 10 3d
       -0.004114696 -0.0064589423 -0.04327474 0.035299446
000090 83 ee 6e 3c 9a d9 98 bc 5b e5 69 3c ef 4e be 3c
       0.014583233 -0.018658448 0.014275874 0.023230998
0000a0 7b ca b3 bd 43 ac 19 3d 13 3d a3 bc 90 cb 94 bd
       -0.087788545 0.037517797 -0.019926583 -0.07265389
0000b0 68 d6 0c 3d 85 db 39 3b d5 51 f5 3c 3a 41 98 bd
       0.03438416 0.0028359604 0.029946247 -0.07434316
0000c0 2d da 80 3d 2a 9f 20 bd a3 af 83 ba 4c 29 12 3c
       0.06291614 -0.03921429 -0.0010046851 0.008920979
0000d0 3e a7 10 3d 0e 6e 8d 3a 23 72 3e 3d a9 02 03 bc
       0.035315745 0.0010790245 0.046495568 -0.00799624
0000e0 e7 77 b0 bc 92 4d 17 bd e8 2a 92 bd cd 4e 75 bc
       -0.021541549 -0.03693921 -0.0713709 -0.014972401
0000f0 0c 25 6d bc c8 54 3b 3d 31 af 16 bd 26 f3 bb bc
       -0.014474165 0.04573515 -0.03678817 -0.02294309
000100 59 34 f5 3b 7e e0 2f 3b 3a fc 6b bd 4e 90 53 3c
       0.007483047 0.0026836689 -0.05761359 0.012912823
000110 d4 8c 8b bd 1c f3 64 3d 00 4d 1c bc 1b 0d 02 bd
       -0.0681397 0.05589591 -0.009539843 -0.03175078
000120 57 69 b6 bc a8 de 38 3d 82 0c 00 3c f5 3f c9 3a
       -0.022267027 0.045134217 0.007815482 0.0015354144
000130 cc bb ce 3d 47 ff 6a bd 6b 85 1b bd 6c 39 bf 3b
       0.10094413 -0.057372358 -0.037969034 0.0058357026
000140 f0 38 1d bd 1d 28 4b 3c 9c 8d 9a bd ee ed 0b 3d
       -0.038384378 0.0123997005 -0.07546541 0.034162454
000150 49 d7 66 3d 30 14 28 3d 43 03 12 bd 0e 64 db 3c
       0.056357656 0.041034877 -0.035647642 0.026781108
000160 86 03 4e b6 9f a2 ec 3c ef ab 2d bd 10 26 43 3d
       -3.0698443e-06 0.028886138 -0.042400297 0.04764372
000170 48 3e 54 bc 1f c5 c2 bb eb a2 29 3e 9b a7 09 3c
       -0.012954302 -0.005943909 0.16566055 0.008401777
000180 51 a8 49 bd c5 e9 1f 3d f7 c1 5a bd 65 b7 26 bc
       -0.049232785 0.0390413 -0.053407636 -0.010175561
000190 b5 35 35 bd fe a8 29 3b 85 c4 a1 3c 32 0e 7d bd
       -0.044240672 0.002588808 0.019747028 -0.061781116
0001a0 4d 92 dc 3c 42 75 c4 3b 37 91 28 bc 1c c2 39 3d
       0.02692523 0.0059954235 -0.010288528 0.045351133
0001b0 09 37 53 bd f0 d0 83 3c 8c 5b 88 bc 7d 13 34 ba
       -0.051566157 0.01609084 -0.016645215 -0.0006869359
0001c0 bc ae 50 3c 2d c6 18 3d be b2 f3 3a 78 82 c1 bb
       0.012736972 0.03729837 0.0018592698 -0.0059054457
0001d0 db a0 e9 bc a2 9a 6f bc c4 f0 3b 3d fe ab 8b bc
       -0.028519085 -0.01462427 0.04588391 -0.017049786
0001e0 21 4f 01 3d b4 bc c6 3d f0 34 d7 3c 49 92 63 3d
       0.031569604 0.09703961 0.02627036 0.05555943
0001f0 d3 c7 63 3d 8f b6 d2 ba f3 05 f9 3b df af 3a bd
       0.05561049 -0.0016076135 0.007599586 -0.04557788
000200 38 43 11 3d 60 6e 1f bd f5 24 d3 bd e6 69 80 bd
       0.035464495 -0.03892362 -0.10309783 -0.062701985
000210 bf e8 01 bd 6b b5 bf bc d8 88 eb ba 27 2a 80 bc
       -0.031716105 -0.023401937 -0.001796986 -0.0156451
000220 90 1c a0 bc 60 25 2d 3c fa 16 df bb 5e 26 3d 3d
       -0.01954487 0.010567993 -0.006808159 0.046179168
000230 17 d2 bd bc b3 94 1a bc 75 a1 d9 bc f1 03 82 bc
       -0.023171468 -0.009434867 -0.026566247 -0.01587102
000240 d6 6b 34 bc 48 d1 c4 3d 64 e3 3a bd cd 45 d4 3d
       -0.011012038 0.0961023 -0.045627013 0.10364876
000250 3e e7 32 be bc f6 ee 3d 47 e0 fc bb 25 69 86 3d
       -0.17471024 0.116681546 -0.0077171656 0.065630235
000260 48 af 0d bd 41 ad 27 bd a8 fb e9 3c 65 bd 45 3d
       -0.03459099 -0.040936712 0.028562382 0.048276324
000270 6b e0 d6 b6 d1 6a 26 be 51 d3 ae 3d bd 26 18 3d
       -6.4038227e-06 -0.16251685 0.08536399 0.03714632
000280 38 01 ee bc b6 49 a5 ba fb 95 b1 3c 8a cb 17 bd
       -0.029053316 -0.0012610469 0.021677962 -0.037059344
000290 3e 1d 35 3d fd 93 0a 3d 51 c8 5c bc 43 26 c1 3c
       0.04421734 0.03383254 -0.0134754935 0.023577815
0002a0 4c 9c be 3c a9 43 6f bb 33 79 16 bd e8 92 9e bc
       0.023267888 -0.0036508834 -0.03673668 -0.01935716
0002b0 a5 50 09 3d 27 74 78 bd 09 0c a3 bc 93 90 f3 bd
       0.033524174 -0.060657647 -0.0199032 -0.1189281
0002c0 36 7d 9e bc 42 de 33 3d a4 1a 18 3d 99 c5 8a bc
       -0.019346815 0.043913133 0.03713478 -0.016939925
0002d0 d6 dc bf 3c 2c 55 5e ba 73 09 19 bd 4e 0f 7d 3d
       0.023420732 -0.00084813195 -0.037362527 0.061782174
0002e0 c0 ca 03 be 23 4c 48 3d bd f2 03 bd 97 cc 60 bd
       -0.12870312 0.048900735 -0.032213915 -0.054882612
0002f0 ae 06 1e 3d 14 39 9d bc c6 93 1f 3c 27 28 0d 3d
       0.03858059 -0.019192256 0.009739822 0.03446212
000300 e1 e0 93 bd c7 95 c6 3c a0 17 05 bd e6 30 6c ba
       -0.072206266 0.024241341 -0.032493234 -0.0009009972
000310 fd 00 13 3d ac 6e 3f bc f1 42 ae bc 14 79 ca bb
       0.035889614 -0.011684101 -0.021272155 -0.0061789844
000320 89 be 18 3b da b7 79 3d 63 a4 d0 3d e1 0a 01 3d
       0.0023306927 0.06096635 0.10187604 0.031504516
000330 89 42 0d bc 68 3b 18 bd 28 ee 58 bd 60 a8 1c 3c
       -0.00862182 -0.03716603 -0.0529615 0.009561628
000340 b8 6f 14 3d 47 3a 26 3c 25 b0 41 bc 5b 35 ba 3c
       0.036239356 0.01014573 -0.011821781 0.02273052
000350 a5 12 9b bd 85 aa 80 3c 43 37 13 3d 1a ea cd bc
       -0.075719155 0.01570631 0.035941374 -0.025136042
000360 90 33 57 bc 3b 40 99 bc 36 0d 71 bc 8f 12 99 3c
       -0.013134852 -0.018707385 -0.014712622 0.018685607
000370 65 1c 07 bc 7e c8 c0 3b 02 e4 90 bc 6b b4 cb bc
       -0.008246516 0.0058832755 -0.017686848 -0.024866303
000380 77 a6 08 3d 94 95 98 bc 6b 8e 27 3c ea ce b8 bc
       0.03336188 -0.018626012 0.010226826 -0.022559602
000390 6b bd bb bd 2b 72 9d bd 9e 81 1f bc af eb 03 bd
       -0.09166988 -0.076877914 -0.009735493 -0.032207187
0003a0 ae 58 6a 3c 14 ee f0 bc ed 2c 83 bb 80 e7 75 bc
       0.014303369 -0.0294104 -0.0040031583 -0.015008807
0003b0 6a 58 54 3c 6f 69 d5 3a 4c 4f 9d ba 01 49 83 3d
       0.012960533 0.0016282032 -0.0012001782 0.06410409
0003c0 61 dc c0 3c 2d 86 74 3d fb a9 dd 3c 0f 97 92 bd
       0.023542585 0.059698272 0.027058592 -0.071577184
0003d0 4e 09 2e bd fa 91 c6 bc 71 5e f4 b8 c1 43 82 3d
       -0.042489342 -0.024239529 -0.00011652418 0.06360579
0003e0 9f 73 14 bd e6 38 92 bc b8 53 40 bd dd c1 71 bc
       -0.036243077 -0.017849397 -0.04695484 -0.014755693
0003f0 c1 ce 02 bc 07 31 ae 3c d0 8f c6 3c 8c d9 55 3c
       -0.007983864 0.021263612 0.024238497 0.0130523555

main.0.bias f4 [64]
000000 11 80 29 3d 46 d1 da 3c 89 87 8a 3c 58 15 af 3d
       0.0413819 0.026711117 0.016910331 0.08548993
000010 6b ee 91 3c aa 56 45 3d f6 bf 86 3d 03 a8 bd 3c
       0.017813882 0.048178352 0.065795824 0.023151403
000020 5f d6 98 3c b9 51 03 3d 71 2d 22 3d 5c 9a 1d 3d
       0.018656908 0.03206036 0.039594118 0.038477287
000030 8e e9 1b 3d ab 6a d2 3c 09 4c 08 3d 9b bc af 3d
       0.038064532 0.025685629 0.033275638 0.085808955
000040 4a c2 b4 3d e4 64 33 3d 91 b9 57 3d 3f 9e 8c 3d
       0.0882612 0.04379739 0.052667204 0.068661205
000050 c7 06 80 3d 7d 99 83 3d db dc 5b 3b a4 7d 06 3d
       0.06251293 0.0642576 0.0033548388 0.032834664
000060 e1 5b 63 3d 07 0d 67 3d 4d 28 6f 3d 44 de 99 3d
       0.055507544 0.05640891 0.058388043 0.07513097
000070 8a f3 13 3d e1 1d 67 3d 6e 44 a4 3d b1 3a c4 bb
       0.03612093 0.05642498 0.080208644 -0.005988442
000080 cb 12 70 3c 4c 3e f6 3c aa 31 d5 3c 2a 7b 5b 3c
       0.014652918 0.030059002 0.026024658 0.013396064
000090 53 e4 72 3d 79 a9 11 3d 36 32 66 3d 9e e7 2c 3d
       0.05929978 0.035562012 0.05620023 0.042213075
0000a0 86 c9 b2 3d 75 9b ca bb ef d7 98 3d 57 21 c2 3d
       0.08729844 -0.0061830827 0.07463061 0.09479015
0000b0 2e 06 5c 3d 77 35 de 3d cb 33 0d 3d 64 5b 87 3d
       0.05371683 0.10850041 0.03447322 0.06609228
0000c0 1f 2f 85 3d 94 ff a0 3d 7b 3e 60 3d 37 a7 5f 3d
       0.06503128 0.07861248 0.054747086 0.054602828
0000d0 bd a4 63 3d e6 ff 8b 3d 2e c2 c6 3c 6c 88 5d 3d
       0.05557703 0.06835918 0.024262514 0.05408518
0000e0 ac 89 83 3d 22 ff 6e 3d 32 4d b7 3d 63 61 65 3d
       0.06422743 0.058348782 0.08950271 0.05600108
0000f0 eb 8f d1 3d 18 f6 ff 3c 57 57 7d 3c fe 69 3e 3d
       0.10232528 0.031245276 0.015462718 0.0464878

main.2.weight f4 [6, 64, 3, 3, 3]
000000 12 fb d1 3c 5c 01 e0 bc 5f dd a1 bb 24 2e 91 bc
       0.025632415 -0.027344398 -0.0049397196 -0.017722197
000010 8b c7 e5 bc da 9c 41 bc db c7 41 bc 50 03 01 3b
       -0.028049251 -0.0118171815 -0.011827434 0.0019685812
000020 2e 9e e4 3b 67 48 21 3d 53 90 52 39 cc 64 92 3c
       0.0069768643 0.03937569 0.00020080926 0.01787033
000030 1b c4 ce 3c 8f 53 99 bd a9 9d ee 3b f2 74 c8 bb
       0.025239995 -0.07486641 0.007281978 -0.0061174566
000040 2b 4b 6c 3c 8e da d7 bb 3b 38 93 bb e9 09 3d 3c
       0.014422218 -0.006587333 -0.004492787 0.011538007
000050 f3 52 ab 3b 5a 42 30 3a a4 a6 20 3b c5 d0 aa bc
       0.005228394 0.00067237543 0.0024513388 -0.020851502
000060 72 b9 15 bc ae e8 90 bc 4e 84 06 3c a4 eb fe 3b
       -0.009138452 -0.017689075 0.008210255 0.0077795554
000070 07 f1 33 3b 12 72 b9 3c d7 8a e7 3a af ae ac bb
       0.0027456896 0.0226374 0.0017665279 -0.0052698473
000080 71 71 0b bb a4 a7 bf bb 44 99 1f bb 4c 1b 37 3b
       -0.0021277333 -0.0058488417 -0.0024352828 0.0027939854
000090 6d 5b 02 bc c0 0a 02 3d 65 1a e2 3c 50 5c 3a 3d
       -0.007956368 0.031748533 0.027600477 0.045498192
0000a0 fa f1 6a 3d 43 3a a9 3b e1 ab 55 ba df 2c 41 3c
       0.057359673 0.005164416 -0.0008150917 0.011790483
0000b0 d0 16 fe bb a6 2d 68 bc 95 06 b8 3c 0a e0 39 3b
       -0.0077541843 -0.01417104 0.022464076 0.0028362297
0000c0 18 ad c9 bb 11 b6 89 bc 0e 48 26 bb 9a 4b a7 bb
       -0.0061546676 -0.016810449 -0.0025372538 -0.005105448
0000d0 f9 f1 c7 3a 7b 3e 09 bc 1e 26 a1 bc a1 d6 49 3c
       0.0015254609 -0.008376713 -0.019671496 0.012319238
0000e0 e1 b7 d3 b8 6d 70 26 bc 04 bc fd 3c bd d7 82 3b
       -0.00010095514 -0.01015864 0.030973442 0.003993003
0000f0 e1 d0 00 bc a4 ad 0e bc 64 0d be bb 94 06 ee bb
       -0.007862301 -0.008708391 -0.005799936 -0.007263968
000100 72 4e fd ba 77 80 d7 bb 05 f5 c3 3a a7 bb 9e 3d
       -0.0019325747 -0.0065765935 0.0014950341 0.077506356
000110 91 85 56 3d 28 eb c2 3b b1 62 da 3c 09 e4 c3 bb
       0.052373473 0.005948443 0.026658388 -0.0059781116
000120 09 98 e0 3b b0 bd da 3b 59 dc 50 3c 03 e1 08 bb
       0.0068540615 0.0066754445 0.0127478475 -0.002088607
000130 eb a0 44 3c b1 a1 4a 3c 67 53 1d bc 84 23 d6 bb
       0.012001256 0.012367652 -0.009602404 -0.0065349955
000140 09 a8 c7 3b 3c bf 3e bc 00 19 42 3a 93 b6 f7 bb
       0.0060930294 -0.0116422735 0.0007404238 -0.0075596063
000150 96 2f 25 bc d8 c6 0d 3d 29 05 47 bd de 34 2e 3c
       -0.010082146 0.03461346 -0.048588905 0.010632722
000160 d2 1f d0 ba b8 53 d3 3b b5 9a 17 3c e7 d5 dd 3c
       -0.0015878624 0.006449189 0.009253194 0.027079536
000170 db f2 ae ba 69 c9 ae 3b b3 d5 f2 3c ce ff 2d 3c
       -0.0013347523 0.0053340686 0.029642915 0.010620071
000180 32 e7 d1 bb 58 5b ca 3c 42 08 52 3c 44 ef 16 3c
       -0.0064057345 0.02470176 0.012819352 0.009212319
000190 20 e7 e8 3c 3d 88 d8 3b f7 04 21 3b 2b 98 91 bd
       0.028430521 0.0066080377 0.002456961 -0.07109102
0001a0 1b ba 89 3c c3 d8 c0 3b b0 34 a6 3b 8d f4 45 3c
       0.016812375 0.005885215 0.005072199 0.012082231
0001b0 b1 2b 5a bc ae 37 88 bb 0c 5e e2 3c 32 5c b7 bb
       -0.013316081 -0.004157028 0.027632736 -0.0055957073
0001c0 fa 74 17 3d 35 cf 9e 3c 7d 7f d0 bc df d6 fb bb
       0.036976792 0.019385913 -0.025451416 -0.0076855267
0001d0 ab 54 94 bc 02 f5 59 3c 2f c1 e8 3c fa 2d 96 bc
       -0.01810678 0.013303043 0.02841243 -0.01833247
0001e0 a6 1e 08 bc 4d 98 3f bc 62 f2 cd ba 03 da a4 bc
       -0.008308088 -0.011694026 -0.0015712494 -0.020123487
0001f0 5e dc b3 3c ff 05 9b bb b2 ae 24 3d 04 09 1e 3c
       0.021955665 -0.0047309394 0.040205665 0.009645704
000200 09 5c f5 bb c5 74 85 3c a1 ab 57 3c 0f 92 f1 bb
       -0.007487778 0.016291032 0.013163478 -0.007372148
000210 c3 ab ba bb a7 ca 1b bb a8 70 6d bc 9a 6c 22 3c
       -0.005696745 -0.0023771913 -0.014492191 0.009913588
000220 28 ae 05 bc 1f 87 dd 3b fb 82 51 3c 2b 59 9d 3d
       -0.008159198 0.0067604925 0.012787576 0.07683023
000230 0d 92 fe ba 8f c5 61 3c 5a 9b 68 bc ab 61 e2 bc
       -0.0019422189 0.013780012 -0.014197195 -0.027634462
000240 88 77 62 3c 99 70 a1 bc a4 98 47 3c 45 7c 40 3c
       0.013822444 -0.019707011 0.012182388 0.011748378
000250 95 bf 13 3c 59 d3 07 bd 70 43 4e 3b 19 5a 19 3c
       0.009017845 -0.03316054 0.0031473301 0.00935986
000260 a5 62 32 3b 01 f3 5c bb 4c 3a c6 bc 0e 6b 99 bc
       0.0027219441 -0.0033714178 -0.02419772 -0.018727805
000270 49 44 b9 3a 53 30 1d 3c cd ea 1d bd c8 18 9f bb
       0.001413473 0.009594041 -0.038554 -0.004855249
000280 8a 00 f4 3b 99 45 d4 bc 8c fc c6 bb eb 37 10 bc
       0.0074463533 -0.025912093 -0.0060725864 -0.008802394
000290 a6 5c 62 3c 4e 5d 9c 3c 17 29 98 3d d7 ee cd 3c
       0.013816034 0.01908746 0.07429712 0.025138302
0002a0 12 20 3d bc 0b 48 89 3c 17 fa b8 bc cc 5d 6c bc
       -0.011543291 0.016757986 -0.02258019 -0.01442666
0002b0 60 d4 d1 bd 7f 11 b5 bc f3 1b ee bc a7 71 09 3d
       -0.102455854 -0.02210307 -0.029066062 0.033555653
0002c0 de e3 d2 bb ac 18 f5 bc e7 80 99 bd 58 53 35 bc
       -0.0064358553 -0.029918991 -0.07495289 -0.011067234
0002d0 95 a8 2a 3b 91 9a 9d 3c e4 eb 42 3c 57 87 0a 3d
       0.0026040424 0.019238742 0.011897061 0.033820476
0002e0 95 c6 88 3c 40 c5 3b 3b 73 e8 8a 3c 4b 08 0e 3c
       0.016696254 0.0028651506 0.016956544 0.008668969
0002f0 86 ed 88 bc 27 c9 1d bc cd 9f bc bc 2e f4 ed bb
       -0.016714823 -0.009630478 -0.023025418 -0.0072617745
000300 11 8f 29 bd d0 58 8c bc 73 62 47 ba 50 e3 8a bc
       -0.041396204 -0.017132193 -0.00076059176 -0.016954094
000310 a8 e7 fc 3b b5 5a 47 3b 82 32 32 bb 2a ab f2 3c
       0.0077180453 0.0030419056 -0.002719075 0.029622633
000320 08 3f df 3c a3 c2 fc 3c 12 26 e4 3c 1d 15 e9 3c
       0.027251735 0.030854529 0.027850185 0.02845245
000330 b3 27 e6 ba f9 21 54 3d d7 2f c3 3b 69 ae 14 bb
       -0.0017559439 0.05179021 0.0059566307 -0.0022686964
000340 0e 17 c3 3c cb 1f d9 bb e1 27 0a 3c 42 c4 03 bc
       0.023814704 -0.0066261045 0.008432359 -0.008042397
000350 61 6e 82 bc 6c 0d 05 bc b0 95 ec ba df 6a e9 3b
       -0.015921773 -0.008120876 -0.0018049981 0.0071233357
000360 ba 90 8d bb a0 69 83 bc 2b c4 82 3c a9 1d e4 3c
       -0.0043202313 -0.016041577 0.01596268 0.027846174
000370 0e d5 1a 3d a3 bd 16 bc 76 86 c3 bb 88 d8 88 bc
       0.03780084 -0.009200486 -0.0059669567 -0.016704813
000380 85 24 83 ba d5 81 67 3c 02 f3 7c bb 42 d7 61 3c
       -0.001000539 0.014130075 -0.0038596992 0.013784232
000390 4a 5b 94 3c 18 13 b7 3c c3 6c 30 3c 0f 8b 80 bc
       0.018109936 0.022347972 0.010768118 -0.015691308
0003a0 d5 a1 29 3d a6 02 5c 3a 58 66 7c bb 43 af d2 bc
       0.0414141 0.00083927286 -0.003851315 -0.025718337
0003b0 08 d9 ae 3b 06 f9 d9 3b 1b 8c 18 bc 51 5f 03 3c
       0.0053359307 0.0066520004 -0.0093107475 0.008018331
0003c0 1b 7c 87 bc 31 9a 4c 3b 6a d4 dd bb f4 35 2a bc
       -0.01653867 0.0031219835 -0.0067697065 -0.01038884
0003d0 fc 92 c6 3b 9c 9b bc 3b 03 4f fc 3a a6 ff 39 bd
       0.0060600024 0.005755855 0.0019249622 -0.04540982
0003e0 bf 78 3e 3c 28 9e e2 3b c3 db 1a 3b 11 38 aa 3b
       0.011625468 0.0069158264 0.0023629523 0.005194672
0003f0 4b 15 62 bc 41 93 ac 3c 7f 16 17 bd a8 a7 d6 bc
       -0.013799022 0.02106631 -0.03688669 -0.026202992

main.2.bias f4 [6]
000000 c3 40 cb 3b 13 cb 89 bc 98 7a 18 3c 7d 9d e4 bb
       0.0062027886 -0.016820466 0.009306572 -0.006976782
000010 1a e7 8e bc 3d 18 fb 3b
       -0.017444182 0.0076628015
