2_generator_A2B.pth (torch, 85456 bytes, 4 tensors)

main.0.weight f4 [64, 6, 3, 3, 3]
0	0x3c91e422	0.017808978
1	0xbd0f4218	-0.03497514
2	0x3c28b4cd	0.0102970125
3	0x3cb183af	0.021669237
4	0xbc061208	-0.00818301
5	0xbcb5695a	-0.022144962
6	0xbb793319	-0.0038024841
7	0x3b2bd5b7	0.0026219913
8	0x3d204771	0.03913063
9	0x3d5dc71b	0.05414496
10	0x3b9254ff	0.0044656987
11	0x3ca32bc9	0.01991834
12	0xbd872ead	-0.066006996
13	0xbddf822b	-0.109134994
14	0xbca4233f	-0.020036338
15	0x3cea5db5	0.028609136
16	0xbd8579c4	-0.065173656
17	0x3dc4063c	0.095715016
18	0xbce5a4ef	-0.028032748
19	0x3ca5ef5b	0.020255735
20	0x3d106277	0.035250153
21	0x3d6cd835	0.05782338
22	0xbd69a593	-0.05704267
23	0xbd1d6c5c	-0.038433418
24	0xbbbd054b	-0.0057684532
25	0xbc110eae	-0.008853598
26	0x3d05cead	0.032667805
27	0x3d1dc4ac	0.03851764
28	0x39247c16	0.00015686484
29	0xbd3bc2aa	-0.045839943
30	0xbd68e42f	-0.056858238
31	0x3e070ff5	0.13189681
32	0xbd3bb3c7	-0.045825746
33	0x3a54d10a	0.00081183075
34	0xbd95e5a8	-0.07319194
35	0x3d57cd8e	0.052686267
36	0xb98fd624	-0.00027434633
37	0x3b01942b	0.0019772153
38	0x3bb141ae	0.005409441
39	0x3ba4a6f5	0.0050247856
40	0xbd7870b6	-0.060654365
41	0xbcf836b8	-0.03029953
42	0x3d0c22a9	0.034212742
43	0xbd2a8294	-0.041628435
44	0x3d7e80b9	0.06213448
45	0xbc44a88b	-0.012003074
46	0x3d03821b	0.0321065
47	0xbc68c7bf	-0.014207779
48	0x3d34bcd9	0.04412541
49	0xbd4375f6	-0.04771992
50	0x3ce6ba02	0.028164867
51	0xbd56820c	-0.052370116
52	0x39a32eca	0.00031124643
53	0xbcdb1f22	-0.026748244
54	0xbd49b6c7	-0.049246576
55	0x3da186d6	0.07887046
56	0x3aa6d537	0.0012728338
57	0x3c2ec1dc	0.010666337
58	0x3d8dc954	0.06923166
59	0xbc3cda8c	-0.011526715
60	0x3cc029f8	0.023457512
61	0xbd2fff15	-0.042967875
62	0xbd8cfaf5	-0.06883804
63	0xbd94cd79	-0.07265753
64	0xbd3e65ec	-0.04648392
65	0x3d67df97	0.056609716
66	0x3cfd70a3	0.030937498
67	0xbc176d76	-0.009242406
68	0x3d845176	0.0646085
69	0x3c60caa2	0.013720186
70	0xbab2f851	-0.0013654326
71	0xbcb43711	-0.021998914
72	0x3d3f5ab0	0.046717346
73	0x3c394c60	0.011309713
74	0xbd336cff	-0.04380512
75	0xbd086bbb	-0.033305865
76	0xbe30b92b	-0.17258136
77	0x3bb98466	0.005661535
78	0x3cc04f61	0.02347535
79	0x3d53fb13	0.051753115
80	0x3c2a8f68	0.010410167
81	0xbce917a9	-0.028453665
82	0xbd3ed480	-0.046589375
83	0x3d89c954	0.067278534
84	0xbc8ac364	-0.016938873
85	0xbc777c2f	-0.015105291
86	0x3cd616ec	0.026133977
87	0x3ca92dba	0.020651687
88	0x3dbe1fb7	0.09283393
89	0xbca7c309	-0.020478742
90	0x3cf52b02	0.029927734
91	0xbda2e39d	-0.0795357
92	0x3d06f9d0	0.032953084
93	0x3dcdef46	0.100554034
94	0xbd4f8a5d	-0.050669063
95	0xbdc7d7ac	-0.09757933
96	0x3bfd5e51	0.0077321907
97	0x3d497f9f	0.049193975
98	0x3c85eb1c	0.01634746
99	0xbd32f57a	-0.043691136
100	0xbd5a09f7	-0.05323216
101	0xbc3b3176	-0.011425367
102	0x3d4e7fda	0.050414898
103	0x3ddf2e10	0.108974576
104	0xbc245c8d	-0.010031831
105	0xbc31ecc5	-0.010859673
106	0x3c8e87ce	0.017398741
107	0xbd0ba7c7	-0.03409555
108	0x3cbde26d	0.023179257
109	0x3d9a85d8	0.0754506
110	0x3a559598	0.00081475964
111	0xbd20694a	-0.03916291
112	0x3d558804	0.052131668
113	0xbc93df2b	-0.01805075
114	0xbb0e17ca	-0.002168166
115	0xbd17fc06	-0.037105583
116	0x3d797111	0.060898844
117	0x3d1aaae0	0.037760615
118	0xbd176c2a	-0.036968388
119	0x3d9b74a7	0.07590609
120	0x3d93d341	0.07218028
121	0xbe10e451	-0.14149596
122	0xbca8fdfa	-0.020628918
123	0x3b8c9951	0.0042907377
124	0xbd6f9906	-0.058495544
125	0x3c36fa4b	0.011168073
126	0x3c77b397	0.015118501
127	0x3cc508b6	0.024052005
128	0x3da9253c	0.08259055
129	0x3c1d81d7	0.009613476
130	0xbb918be9	-0.0044417274
131	0x3c542553	0.012948352
132	0x3c29fe02	0.010375502
133	0xbd38afbd	-0.045089472
134	0xbcc2c99c	-0.023777775
135	0xbc6edd07	-0.014579064
136	0xbd37b492	-0.04484994
137	0x3cbd8a3d	0.023137206
138	0x3c503bad	0.01270954
139	0xbd8f518b	-0.06997975
140	0x3d8f8936	0.07008593
141	0x3d2b79f4	0.04186435
142	0x3d8650b4	0.06558362
143	0xbd3c7f6a	-0.04601995
144	0x3d632b17	0.055461016
145	0x3dbdd110	0.09268391
146	0x3d278627	0.040899422
147	0xbd3c560d	-0.045980502
148	0xbe4443a5	-0.1916643
149	0xbce1848a	-0.02752902
150	0x3c10b960	0.008833259
151	0xbdbae006	-0.0912476
152	0x3de5e662	0.11225583
153	0xbc8c34ed	-0.01711508
154	0xbaba9eec	-0.0014238036
155	0x3c4f191a	0.012640262
156	0xbd6b063a	-0.057378985
157	0x3cb65de5	0.02226157
158	0x3c689e6e	0.014197929
159	0x3ce3f790	0.027828008
160	0xbd4a4886	-0.04938557
161	0x3c5a871e	0.0133378785
162	0x3d21021c	0.039308652
163	0xbc3446a0	-0.011003166
164	0x3b726094	0.0036983835
165	0xbd1ad5b8	-0.037801474
166	0x3c849cce	0.016188052
167	0x3de159bb	0.11003443
168	0xbc801dfe	-0.015639301
169	0x3c2a40f4	0.010391463
170	0xbc63cc90	-0.013903752
171	0x3d585c25	0.05282225
172	0xbca9bcde	-0.020719942
173	0x3cf40a61	0.029790105
174	0xbd90ffc6	-0.07080035
175	0x3eb32dfa	0.34996015
176	0xbcfb025f	-0.030640779
177	0xbd0da263	-0.034578692
178	0xbdcf858e	-0.101328954
179	0x3d231bc1	0.03982139
180	0xbb11c20c	-0.0022240905
181	0xbcd25409	-0.025674837
182	0x3d2e6391	0.042575423
183	0x3d9c42c9	0.07629926
184	0xbcba4eb1	-0.022742601
185	0xbd5628fb	-0.052285176
186	0x3d9298b7	0.07158034
187	0xbd345e66	-0.044035338
188	0x3d7cafaf	0.061690982
189	0xbc738c08	-0.014864929
190	0xbdbba649	-0.09162576
191	0x3ca75316	0.02042536
192	0x3bd6da2a	0.006556769
193	0x3d804885	0.06263832
194	0xbcc432b0	-0.023949951
195	0xbae55170	-0.0017495584
196	0x3da859aa	0.08220227
197	0xbc9165cc	-0.017748736
198	0xb9f29593	-0.00046269278
199	0xb9da7b17	-0.0004167191
200	0x3c97fd53	0.018553412
201	0xbcec7774	-0.028865553
202	0x3cf4e347	0.02989353
203	0xbd6360d4	-0.055512264
204	0x3bd58813	0.0065164655
205	0xbd93091c	-0.07179472
206	0x3d014385	0.031558532
207	0x3c870540	0.016481996
208	0x3cfa9399	0.030587958
209	0x3d2e1730	0.042502582
210	0xbcfce25a	-0.030869652
211	0xbd80831e	-0.062750086
212	0xbd1d95c0	-0.03847289
213	0x3d3fb859	0.046806667
214	0x3b721195	0.003693675
215	0x3cd8e10c	0.026474498
216	0x3c3d852c	0.011567395
217	0xbc967f5f	-0.018371282
218	0xbd3074e8	-0.04308024
219	0x3d27f599	0.041005705
220	0xbdee7108	-0.11642653
221	0x3d44e8bd	0.04807352
222	0x3b195991	0.0023399333
223	0x3c145474	0.009053338
224	0xbd3619ba	-0.04445813
225	0x3b3e3e76	0.002902893
226	0xbc753a4b	-0.014967511
227	0x3c970170	0.018433303
228	0x3c319e2f	0.010840937
229	0xbd8539a0	-0.06505132
230	0x3c929bea	0.017896611
231	0x3b5fc133	0.0034142255
232	0xbd07201a	-0.0329896
233	0xbd25d5f4	-0.040487245
234	0xbce28e90	-0.02765587
235	0xbc0304db	-0.007996763
236	0xbd54d4f7	-0.05196091
237	0x3c862e98	0.01637964
238	0xbcac0166	-0.02099676
239	0x3be3de42	0.0069539854
240	0xbd039526	-0.03212466
241	0xbce59f9f	-0.028030215
242	0x3c7cd832	0.015432404
243	0x3c523cb2	0.012831854
244	0x3c1bfc53	0.009520608
245	0xbd16a730	-0.036780536
246	0xbcef8673	-0.029238915
247	0x3d95adf5	0.0730857
248	0x3d364f80	0.04450941
249	0xbda8645f	-0.08222269
250	0x3d04331b	0.0322753
251	0xbd34e9dd	-0.044168342
252	0x3d74c498	0.0597578
253	0xbdb45da8	-0.08806926
254	0x3c8bc674	0.017062403
255	0xbd3a7821	-0.04552472

main.0.bias f4 [64]
0	0x3d5ff7a2	0.05467952
1	0x3d3f615d	0.046723712
2	0x3d24076f	0.04004615
3	0x3d89962b	0.067180954
4	0x3d8eb805	0.06968693
5	0x3c0ccb70	0.008593425
6	0x3d769091	0.060196463
7	0x3d7790b9	0.060440753
8	0x3d720dba	0.059095122
9	0x3db77d2e	0.08959423
10	0x3cfbf76f	0.030757634
11	0x3cdcf81d	0.026973778
12	0x3daab334	0.083349615
13	0x3c9f1ef1	0.019423934
14	0x3d463aee	0.048396043
15	0x3cc0ff55	0.023559252
16	0x3d26ffc1	0.04077125
17	0x3d511536	0.05104562
18	0x3dad6a6f	0.08467566
19	0x3d62be30	0.05535716
20	0x3db09469	0.08622057
21	0x3cec13ba	0.028818
22	0x3cfb583c	0.030681722
23	0x3dbeec15	0.09322373
24	0x3d88578f	0.066573255
25	0x3d93e174	0.07220736
26	0x3d95d8dc	0.07316753
27	0x3dcede0e	0.10100947
28	0x3d61bbb3	0.055110645
29	0x3d914eb0	0.070950866
30	0x3c2a4c03	0.010394099
31	0x3d84d9a3	0.064868234
32	0x3d0ae45e	0.033909194
33	0x3d245d36	0.040127955
34	0x3db8a551	0.090159066
35	0x3da3bcd9	0.07995004
36	0x3d822f3f	0.06356668
37	0x3d6f20e5	0.05838098
38	0x3d040431	0.03223056
39	0x3d2571cc	0.04039173
40	0x3dd604b8	0.10450119
41	0x3ceaa3a1	0.028642477
42	0x3d6e0493	0.05810983
43	0x3d4b9593	0.049703192
44	0x3d0f330b	0.034960788
45	0x3dd497ba	0.10380502
46	0x3cbf1b8c	0.023328565
47	0x3db58a7f	0.08864307
48	0x3d1fd953	0.039025616
49	0x3d8aa9ec	0.06770691
50	0x3d3a144c	0.045429513
51	0x3d90b179	0.070651
52	0x3d09e73d	0.03366779
53	0x3da1f3e7	0.07907849
54	0x3c7572a7	0.0149809485
55	0x3d91fc28	0.07128173
56	0x3d73a768	0.059485823
57	0x3d972b06	0.07381253
58	0x3d9811e4	0.07425287
59	0x3d8c7308	0.06857878
60	0x3c8c0ffa	0.017097462
61	0x3d06f4e9	0.03294841
62	0x3c8f4527	0.01748903
63	0x3d1a2978	0.037637204

main.2.weight f4 [6, 64, 3, 3, 3]
0	0xbc17cfef	-0.009265884
1	0x3b861c1a	0.0040927054
2	0x3c52ab9c	0.012858298
3	0xbc7429e6	-0.0149025675
4	0xbc7fd0b1	-0.015613721
5	0x3c041bba	0.008063251
6	0xbbf5c88f	-0.007500715
7	0xbd0ad8d3	-0.033898186
8	0xbb21fa96	-0.0024716011
9	0xbbd73e75	-0.0065687248
10	0xbc591dda	-0.013251746
11	0xbcd3834a	-0.02581944
12	0x3c289ac2	0.010290803
13	0x3d20bc69	0.039242182
14	0x3b958ea9	0.0045641256
15	0x3c064e37	0.008197359
16	0x3c57e96a	0.013178209
17	0x3cb4fbd8	0.022092745
18	0x3ae57604	0.0017506485
19	0xbbdd2680	-0.0067489743
20	0x3bcb8f30	0.0062121376
21	0x3c2b7434	0.010464717
22	0x3c91a9aa	0.017781097
23	0x3c40a22d	0.011757416
24	0xbb0e032e	-0.0021669376
25	0x3cd46940	0.025929093
26	0xba096e8e	-0.0005242609
27	0x3d0217de	0.031761043
28	0x3cb81385	0.022470245
29	0x3c417c68	0.011809446
30	0x3ce1c128	0.027557924
31	0x3cecdef4	0.028914906
32	0x3d094087	0.033508804
33	0x3c2f340b	0.01069356
34	0xbc822625	-0.01588733
35	0x3c844157	0.016144438
36	0xbc24f9ea	-0.01006935
37	0x3c9668be	0.018360492
38	0x3d2b29bc	0.041787848
39	0x3cb01ca5	0.021498034
40	0xbca5d28a	-0.020241994
41	0x3c901e9f	0.017592726
42	0x3bfec025	0.0077743703
43	0xbd1a8f53	-0.03773434
44	0x3c7cf734	0.015439797
45	0x3b69a030	0.0035648458
46	0xbca08f0d	-0.019599462
47	0x3b419f1e	0.0029544304
48	0x3bbd750e	0.0057817763
49	0xbd7c78f7	-0.0616388
50	0xbcbe3464	-0.023218341
51	0x3cb51a2c	0.022107206
52	0xbccce033	-0.02500925
53	0x3c952383	0.01820541
54	0xbc3cc893	-0.01152243
55	0xbc653c6c	-0.0139914565
56	0x3c040b2e	0.008059306
57	0x3b9b66db	0.004742486
58	0xbc482eae	-0.012218161
59	0x3c390f84	0.011295203
60	0xba173fe5	-0.0005769714
61	0x3caa6eef	0.02080485
62	0xbb71f318	-0.0036918577
63	0xbb3780fd	-0.0028000467
64	0xbc387db0	-0.011260435
65	0x3c285c6f	0.010275944
66	0x3c2edd02	0.01067281
67	0xbc3139e5	-0.010817026
68	0x3c75a336	0.014992526
69	0x3c37da81	0.011221529
70	0x3c8e6a33	0.017384624
71	0x3b624ea7	0.0034531744
72	0x3c89c530	0.01681766
73	0x3b9e1e85	0.0048254156
74	0x3ac36038	0.0014905995
75	0x3d28b0fe	0.041184418
76	0xbbaa1c04	-0.005191328
77	0xbbe7f79b	-0.0070790774
78	0x3a120c78	0.0005571316
79	0x3c42c287	0.011887199
80	0xbc102037	-0.008796743
81	0xbc9954bc	-0.018717162
82	0xbc314d2d	-0.010821623
83	0xbc827df3	-0.015929198
84	0xbd0ac62d	-0.0338804
85	0xbc451251	-0.012028293
86	0xbc8c6658	-0.017138645
87	0xbcbf4a5d	-0.023350889
88	0x3c88d27b	0.016701927
89	0x3c6f5317	0.0146072125
90	0x3c2a0e45	0.010379379
91	0xbd92f54c	-0.07175693
92	0xbc4d35c7	-0.012525029
93	0x3c007c06	0.0078420695
94	0xbc4d9022	-0.012546571
95	0xbcc320ab	-0.023819288
96	0x3c0fa784	0.008767966
97	0xbc5d0266	-0.013489341
98	0xb9a644b5	-0.00031713178
99	0x3c909784	0.017650373
100	0xbc1695c8	-0.009190984
101	0xbc53df84	-0.012931708
102	0xbc82fc0e	-0.01598933
103	0x3cdbf046	0.02684797
104	0x3cbcebc5	0.023061642
105	0x3bfa597d	0.0076400624
106	0x3c4883bb	0.012238438
107	0x3bedde70	0.0072591826
108	0x3d09a209	0.033601794
109	0x3cf7281a	0.03017049
110	0x3c32a742	0.010904135
111	0xbbad14c6	-0.0052820174
112	0xbde85c00	-0.113456726
113	0x3935601f	0.00017297313
114	0x3c0f29a6	0.008737957
115	0xb6c6a632	-5.9202075e-06
116	0x3cd66894	0.026172914
117	0x3c7ee29a	0.015556956
118	0xbc26d178	-0.010181777
119	0x3c5c187c	0.013433572
120	0xbd00de94	-0.031462267
121	0xbd89b301	-0.067235954
122	0xbd351843	-0.04421259
123	0xbc26b6a9	-0.0101753855
124	0xbd17a276	-0.03702017
125	0x3a7f4638	0.00097379414
126	0x3cd27001	0.025688173
127	0xbbe0b2b1	-0.006857239
128	0x3c6deaf0	0.0145213455
129	0xbc34633b	-0.0110099865
130	0xbc7116a5	-0.0147148715
131	0xbc6aa608	-0.0143218115
132	0x3c19ebc4	0.00939459
133	0xbca107df	-0.019657074
134	0x3c87f99d	0.016598517
135	0xbb1358a7	-0.002248326
136	0xbd168da8	-0.036756188
137	0xbc1e694f	-0.009668662
138	0x3bc88968	0.0061198957
139	0xbc367018	-0.011135124
140	0xbca5f95f	-0.020260511
141	0x3cd245f6	0.025668126
142	0x3d23132e	0.039813213
143	0xb9c6e484	-0.0003793576
144	0x3b98597e	0.00464934
145	0xbd2abdb9	-0.04168484
146	0xbc266a9d	-0.0101572545
147	0xbc8355f7	-0.016032202
148	0xbd38e164	-0.045136824
149	0xbd32ed73	-0.04368348
150	0x3c7afc4e	0.015318943
151	0x3c47d223	0.012196097
152	0x3c068f93	0.008212942
153	0x3ca1a3d4	0.01973144
154	0xb9e31051	-0.0004330897
155	0x3cd5c232	0.026093576
156	0xbbda2f29	-0.006658454
157	0x3cc615eb	0.024180373
158	0xbbf7af91	-0.007558771
159	0x3c962b04	0.018331058
160	0xba21c1a2	-0.0006170516
161	0xbab287ea	-0.0013620828
162	0xbc77f354	-0.015133698
163	0xbc27167e	-0.010198234
164	0x3c2aaddd	0.010417429
165	0x392da081	0.00016558358
166	0xbdc5803a	-0.09643598
167	0xbcec594a	-0.02885117
168	0x3bc92507	0.006138447
169	0xbc881246	-0.016610276
170	0xbc46db03	-0.012137177
171	0xbb147555	-0.0022652943
172	0xbd18ab9a	-0.037273027
173	0xbc03755f	-0.008023589
174	0x3c50cfbb	0.012744839
175	0xbd59a270	-0.053133428
176	0xbc95956f	-0.018259732
177	0x3cf025fb	0.029314985
178	0x3ccd5edb	0.025069645
179	0xbc4582db	-0.012055124
180	0x3c5c2f38	0.013438992
181	0xbbf688a4	-0.007523613
182	0x3b84e31d	0.0040553943
183	0x3c6ef945	0.014585798
184	0xbc6c83e7	-0.014435745
185	0x3b89b6a1	0.0042026793
186	0x3c981128	0.018562868
187	0x3c58309f	0.013195186
188	0x3ccbb9d1	0.024868878
189	0xbc2f96ea	-0.010717133
190	0xbca96ce7	-0.020681811
191	0x3acc1e19	0.0015572935
192	0xbc24db2c	-0.01006202
193	0xbd22315d	-0.039597858
194	0xbc32db5a	-0.010916555
195	0x3c95044c	0.018190525
196	0xbb8fae1b	-0.0043847687
197	0xbc58e78c	-0.013238799
198	0xbbf6d04e	-0.007532156
199	0xbbe87241	-0.0070936983
200	0x3b87a852	0.0041399384
201	0x3c73e1c0	0.014885366
202	0xbda49438	-0.08036083
203	0x3c63d018	0.013904594
204	0x3acde1b9	0.0015707529
205	0x3c9bfa31	0.019040199
206	0x3b48cd10	0.0030639805
207	0x3c169749	0.009191343
208	0x3c607003	0.013698581
209	0x3ceecd16	0.029150527
210	0x3b950b45	0.0045484626
211	0x3d25c996	0.04047545
212	0x3ccf35a5	0.025294134
213	0xbb94bb9e	-0.0045389673
214	0xbc7c6ac2	-0.015406312
215	0x3ca7bb11	0.020474942
216	0x3cb7bd7a	0.022429217
217	0x3ca513fd	0.020151133
218	0x3c708ef7	0.014682523
219	0x3c7ce600	0.015435696
220	0x3ccb1564	0.024790473
221	0x3cf4faca	0.029904742
222	0xbc3e5b1c	-0.011618402
223	0x3b697ec7	0.0035628544
224	0x3c446742	0.011987509
225	0xbc9288b1	-0.017887445
226	0xbd7af60f	-0.061269816
227	0xbcefc6f4	-0.029269673
228	0x3c888254	0.016663708
229	0x3c86fedf	0.016478954
230	0xbcbb9647	-0.022898806
231	0x3b96a12b	0.0045968494
232	0x3d0404ef	0.032231268
233	0xbbd123f5	-0.0063824602
234	0xbc5a3061	-0.0133171985
235	0x3c0c9e0e	0.008582605
236	0x3b953f4b	0.0045546643
237	0xbcfd76fc	-0.030940525
238	0xbc36b0fd	-0.011150596
239	0x3c5a2b95	0.013316055
240	0xbc650675	-0.01397859
241	0x3bb8f09b	0.005643917
242	0xbc7b034d	-0.015320611
243	0x3cb909ff	0.022587774
244	0x3cdefe38	0.02722083
245	0x3c2bc325	0.010483538
246	0x3ba4f49c	0.0050340425
247	0x3dd5046f	0.10401236
248	0x3b1f57bc	0.0024313768
249	0x3bd78050	0.0065765753
250	0x3bb99c71	0.005664401
251	0x3cb6f1eb	0.022332152
252	0x3c8963d5	0.016771236
253	0x3c024c68	0.007952787
254	0xbca509f2	-0.020146344
255	0x3d228b7c	0.039683804

main.2.bias f4 [6]
0	0xbc390886	-0.011293536
1	0xb9c552f1	-0.00037636564
2	0xbc2e4384	-0.010636214
3	0x3c1e5b89	0.009665378
4	0xbc484e99	-0.01222577
5	0xbc372dc8	-0.011180349
