generator_B2A.pth (torch, 43968 bytes, 4 tensors)

main.0.weight f4 [64, 3, 3, 3, 3]
00000000: 4ef7 f73b 55a8 41bc 3765 d2ba 4af4 babb
00000010: 5040 d3ba cc31 4a3b 8ba8 9b3b 5e7f 023b
00000020: 19a4 b03b c2a8 97bd 1d7b 01bd 9343 94bd
00000030: 9bd9 273d 5ca1 af3d 74b2 103d d6b2 8e3c
00000040: e995 053b f846 193b 04ac 59bc c240 5cbb
00000050: fb69 3939 806c ee3b ae8f a2ba d341 98bb
00000060: 70a7 20bc b613 15bb 8b3a 8db9 5f0f 0f3c
00000070: 9ee4 583c 6aee adbb 4d55 51bc ded4 043c
00000080: d6f6 72bb 2150 9bbb 8c92 f53b fd2d 863c
00000090: 3895 d3bd 810b 6ebd 2a2f b7bd 6858 133d
000000a0: ed43 043e d34f 323d 715f 4ebc a022 96bb
000000b0: 6116 debb 1a6e 80bb b3d7 bc3b fad0 3cbc
000000c0: c9ea bfbb 1aed 223c bc69 ae3b cc88 b13b
000000d0: 3bfa dc3b cfdd 853c 3db3 713c 05cb 543a
000000e0: 9ddf debb 7c96 44bb 0f90 30bb 3b8f 2fbc
000000f0: cf4c 1d3c 1e63 33bb 3213 203c 4daf 65bd
00000100: f8c4 a6bc 8c88 8cbd 02b9 423d bc13 c53d
00000110: b741 8a3c ed40 62bb bb19 d9bb 6c0b 60bc
00000120: ff09 0d3c b138 333c 775d 173c c1d5 06bb
00000130: 2874 15bb e599 02bc d60a a63c a527 d83b
00000140: 50ac bb3c 7eb3 563c 040f c13c 7022 c63c
00000150: ad90 8cbc 4589 09bc 41c5 c3bb 980d 07ba
00000160: 58d8 50bb b4fa ce3c b78e c5bd c3b3 06bd
00000170: e419 43bd dbcd f33b 7e0a 583e 2e05 10bc
00000180: 7c60 bfbd e585 05bd 3769 76bd fc4f f03b
00000190: bcb5 d53c 83db 733c 2efc 123d 9b6e 8c3c
000001a0: e708 423c fb22 d8bc 51bc 0abc bc83 3a3d
000001b0: 6fa2 c43a 842e aabc 516e 09bd 208c 5abc
000001c0: ddef a23b d785 37bd b534 7b3a 135b 663c
000001d0: 2143 8f3c 50f3 663c e947 6cbb 5a40 903d
000001e0: bc15 943b 2e5f 07bd 2136 9fbc d343 2a3c
000001f0: d7a9 ad3c 4ac0 bd3b 1e2e 61bd 8713 6bbc
00000200: 5590 00bd f718 d63b b182 ce3c 64db 923b
00000210: 3c33 95bc 7f36 c03b c6b1 9cbc af4c 1fbb
00000220: c598 943b 35fc 9a3c 7874 4b3b 454d 223c
00000230: d220 6dbb 915e 393c bb63 3ebd ad3a ee3c
00000240: 4798 403d e482 07bc 2ba0 8e3c 4ebb 073d
00000250: d46e 0ebe b61c eb3b f42e f73a 4c9a 8c3c
00000260: 8412 b4bc 4fed 373d 4978 cd3c 6d11 aa3b
00000270: dbb8 4fbc b377 8ebd 9d20 90bc 324a e63c
00000280: 30d7 be3c 29f2 713c af8a 74bc cac3 debb
00000290: 4db7 833d a401 963c 5d69 e13c 71fb 603d
000002a0: 0ed0 51bd 070b 19bc 2168 803c 7b1b 8b3c
000002b0: 3b01 96bc 693b d1bb bd35 033c 9222 8dba
000002c0: 6d17 cbbc 1d7b 50bc 4616 aabc 574e 34bd
000002d0: ef20 8338 b16e 8b3b 54fe 973b bc5c 14bc
000002e0: 22a4 13bb 8c8f 42bb d67f be3b 1821 64bb
000002f0: d1cb 90ba 5760 0d3d 29bc 10ba 112a 10bd
00000300: dd99 8e3c c3ab e2bc de10 f3bc b46b 243d
00000310: 20b6 743c 46c4 1fbb 02ef 2bbc 256d ae3c
00000320: 0261 0d3c d170 0abc 8186 8ebc 9570 1b3c
00000330: 1195 373c 0614 4b3c e153 193c 3fdd 803b
00000340: 1677 2abc 5443 55bb ec99 29bc d1ba 99ba
00000350: 69b1 03bc aaeb 99bc 1bb6 d43b 82de 8c3b
00000360: 936c 8bbd 6ec5 4cbd ba7e 10bd 88a2 39bd
00000370: 25ad d8bc 4efb b0bc 4922 32bc 9e5c 253c
00000380: 0b2a d93c fdd5 d6ba ca89 c53c 7e25 9c3b
00000390: e6fe 0bbb a682 86bb b4d2 1e3c 2550 d33c
000003a0: cbb0 e33c 8acf 3b3c 6f86 333c 69d0 183c
000003b0: 944c 873c 335c 8ebb edef a83b afa4 d7bb
000003c0: 9b2e 603c a4bb 213c f28e 523c 61c9 b2bb
000003d0: 2bca d93b 3c89 f93a 919e 3cbc 0d61 91bc
000003e0: d7ed 6ebc c848 36b7 e495 663c b261 6ebc
000003f0: cdaa 8dbc 9091 373c daad c6bc aac9 1ebd
0.007567323 -0.011819919 -0.0016051893 -0.005705391 -0.0016117189 0.0030852435 0.0047503165 0.0019912343
0.0053906557 -0.07405235 -0.03161155 -0.07239451 0.04097901 0.08575699 0.035326436 0.01741926
0.0020383543 0.0023388248 -0.013285641 -0.0033607935 0.00017682456 0.007276118 -0.0012402439 -0.0046465187
-0.009805545 -0.0022747344 -0.00026937234 0.008731692 0.0132381 -0.005307962 -0.012776685 0.008107392
-0.0037073395 -0.0047397767 0.0074942764 0.01637935 -0.103311956 -0.05811644 -0.08944543 0.035972983
0.12916537 0.043533158 -0.012595997 -0.0045817643 -0.00677757 -0.003919375 0.005763018 -0.011524433
-0.005856846 0.009944225 0.005322663 0.005417919 0.006743697 0.016341118 0.014752206 0.00081174105
-0.006801559 -0.0029996922 -0.0026941334 -0.010715301 0.009600832 -0.002737231 0.0097702015 -0.056075383
-0.020357594 -0.06861982 0.04753972 0.09622905 0.016877038 -0.0034523562 -0.0066253818 -0.013674598
0.00860834 0.010938809 0.009238592 -0.0020574185 -0.002280483 -0.007971262 0.020268839 0.006596523
0.022909313 0.013104318 0.02356673 0.024186343 -0.01715883 -0.008394544 -0.005974442 -0.0005151867
-0.0031867232 0.025266029 -0.09646361 -0.032886278 -0.047632113 0.0074403114 0.21097752 -0.008790297
-0.09344575 -0.032598395 -0.060158934 0.0073337536 0.026087634 0.014883879 0.03588503 0.017142585
0.011842943 -0.026383867 -0.00846775 0.045535788 0.0015002022 -0.020774134 -0.03355247 -0.0133390725
0.0049724416 -0.044805374 0.0009582744 0.0140598 0.017488064 0.014096096 -0.0036053604 0.07043524
0.0045191925 -0.033049755 -0.01943499 0.010392147 0.02119915 0.005790745 -0.05497562 -0.014347917
-0.031387646 0.0065337378 0.025208803 0.00448172 -0.018212907 0.0058658714 -0.019127738 -0.0024307182
0.004534813 0.01891909 0.0031044763 0.009906118 -0.0036182893 0.01131405 -0.04648183 0.029080713
0.047020223 -0.008270953 0.017410358 0.033137612 -0.13909465 0.0071750535 0.0018858598 0.017163418
-0.021981485 0.04490405 0.02508177 0.0051900656 -0.01267835 -0.069564246 -0.017593676 0.028111551
0.023295969 0.014767208 -0.014925643 -0.006798242 0.06431446 0.01831133 0.027516061 0.054927293
-0.051223807 -0.009341008 0.015674653 0.016980877 -0.018311134 -0.006385256 0.008008418 -0.0010767749
-0.024791444 -0.012724665 -0.020762574 -0.044020023 6.252701e-05 0.004255139 0.0046384726 -0.009055313
-0.002252825 -0.0029687611 0.005813579 -0.0034809764 -0.001104707 0.034515705 -0.0005521202 -0.035196368
0.017407352 -0.027669793 -0.029671129 0.040141776 0.014936 -0.0024378463 -0.010493996 0.021292279
0.0086290855 -0.008449749 -0.01739812 0.009487291 0.011204974 0.012394911 0.009358377 0.0039326246
-0.010404369 -0.0032541351 -0.010351639 -0.0011728649 -0.008037903 -0.018789131 0.006491435 0.004298986
-0.06807818 -0.04999297 -0.035277106 -0.045321018 -0.02644975 -0.021604206 -0.010872432 0.010092882
0.026509305 -0.0016390678 0.024113555 0.0047652116 -0.0021361648 -0.00410493 0.00969379 0.025795052
0.027794262 0.011463055 0.010957344 0.009327033 0.016516007 -0.004344487 0.0051555545 -0.006580911
0.013682987 0.009871397 0.012851464 -0.005456135 0.0066464148 0.0019038091 -0.011512415 -0.017746473
-0.014583073 -1.0864991e-05 0.014073823 -0.01454966 -0.017293358 0.011204138 -0.02425282 -0.03876654

main.0.bias f4 [64]
00000000: bede 643c cd75 463d 7d72 163c d5a6 f83b
00000010: 1ecb be3d 3bca 333d f401 03be 3c6a e23c
00000020: 9856 0abd 7601 48ba 8774 443d d183 d6bd
00000030: 36d2 973d 03b7 a4bc 3e03 9cbd 6cf4 013c
00000040: d0d1 5c3d 9cc9 473d f39d 9f3c 06b4 b03d
00000050: 8467 d33c 4cbb d43c 4039 8bbd cc7f 293d
00000060: e94d 0bbe 0e22 8c3d bfba eabc f03b 933c
00000070: a070 ba3d f553 8a3d 3189 783d a823 5b3d
00000080: 67ab 1a3d 758c 0b3d a17f b43d 8c88 3d3c
00000090: 15b3 1b3d 163d de3c 0f7c f63c 8a17 003d
000000a0: df1a c33d 6bc9 7b3d 8b41 d4bd 1143 4f3d
000000b0: eefd 193d 2931 dd3b e635 8c3d 9a91 3fbd
000000c0: 60e8 1e3c 09a0 f63c 1306 3f3d fb8c 663c
000000d0: 19a0 4f3c 4450 5c3d 817e 723d a06f 363d
000000e0: 8869 9c3c db8c 9c3c a415 763d 2e72 8d3d
000000f0: cd6c a23d 2f1b b5bd 32e8 963c 33c3 9a3d
0.0139691215 0.048452187 0.00918257 0.0075882473 0.09316085 0.043894034 -0.12793714 0.027638547
-0.03377399 -0.0007629612 0.04796269 -0.10474361 0.074131414 -0.020106798 -0.07617806 0.00793181
0.05391103 0.048776254 0.019484496 0.08628087 0.025806196 0.025968216 -0.06798029 0.041381642
-0.13603939 0.06842433 -0.0286535 0.017972916 0.09103513 0.06754295 0.06067771 0.0535008
0.03776112 0.034069497 0.08813406 0.0115682 0.038012583 0.027128737 0.030088453 0.03127245
0.0952661 0.061471384 -0.10364064 0.05060107 0.03759568 0.006750245 0.06846218 -0.046769716
0.009698957 0.030105608 0.046636652 0.014071698 0.012672448 0.053787485 0.059202675 0.044540048
0.01909329 0.019110134 0.06007923 0.06906544 0.07930908 -0.088430755 0.018421266 0.075567625

main.2.weight f4 [3, 64, 3, 3, 3]
00000000: 3036 d73c 40b5 62bc f2dc 0dbc 40e1 893c
00000010: 7506 d43b b09f bbbc 9448 40bc e4f6 c1bc
00000020: a9b2 ffbc f94f 173c 604c 22ba 1718 af3c
00000030: 45a7 23bd d094 d4bc fd8c 5d3a 4981 453d
00000040: b92a 4a3d d8c2 573d 0b14 9dbc 3e4e 49bc
00000050: ce71 9fbb 26a8 d0b9 0ee4 ee3c d806 c9bc
00000060: 9d73 c23c 7b48 e3bc 315e fdbc 34f6 ca3c
00000070: 1ad3 083b 0a47 c6bb d862 e13b b05b 6abd
00000080: 4a0a e2bb f977 743c f90a dcba 9cde 08bc
00000090: 2a68 eb3c d89e 3fbd 5a55 febc 76aa 42bc
000000a0: 9314 32be 6fea 2abd 7323 103b 7d1a 25bd
000000b0: 5983 d9bc b1ed f63c 13b7 2b3c b143 a33c
000000c0: 6e4b c43c 7980 233d a4f7 e83c 2c38 b03a
000000d0: 0085 813c 4544 07bc da31 bbbb a187 1d3b
000000e0: e137 50bc b271 a03c 2f43 463c 5ebb f33c
000000f0: 67f3 8e3c d562 203c 868e a73c af02 39bd
00000100: 2766 b2bc 864d b1bc 2d03 d7bc 9cf9 08bc
00000110: 0582 edbb 0a12 7abc e3f1 7b3a b4b9 d5bb
00000120: 506e b33c 546b a4bc d0a9 26bd 992c 513d
00000130: f46a 053a a5c1 223c da15 773d b97e 49bc
00000140: c4fe 0c3d 6966 063c 7d9b 01bc e209 babc
00000150: 4cfb 76bc a908 3dbc df3e 01bd 4865 cc3b
00000160: ca51 6f3c a89c 3fbd a55e 393d 3fc7 fe3a
00000170: 4a80 0dbd 2893 803b c57f f33d 3e18 153c
00000180: 7fb2 0f3d 7d9f 37bd 1080 4cbd e870 41bc
00000190: ea4e febc 5392 a2bc b618 043c 77e4 363d
000001a0: 68a3 9c3c 59ef 38bc 4e30 2e3c 8a91 f1bc
000001b0: fb24 d13b b7d7 273a e19b a7bc 0c88 153b
000001c0: 01ba e2bc 8780 d73b 5ce7 323a 5dcf 643c
000001d0: 8662 15bc 9123 573c 6ec2 8f3c e4db 90bc
000001e0: 030a 01bc 2ab8 303e 4158 eabc 1606 1abc
000001f0: 8827 5d3b 2501 1dbc 12fe 6dbc 7503 60bc
00000200: a354 883c 0207 67bb 1f12 273c 5caa 8cbc
00000210: 3835 063d c1dc de3b c084 e0bb 007a f73c
00000220: 2cf6 ccbb 4c03 c03c ead6 fd3b e55b e5ba
00000230: 55fd afbc eebb 5e3a 1a97 62bc 3f63 64bc
00000240: 5618 7cbc 143e 84bd 016c 13bc b22c fa3b
00000250: 104f 0c3d f050 bcbc 131b 43bc fcb1 043b
00000260: 26d5 a0bc 3cd6 483c 1098 c4bb 744f 15bb
00000270: 4959 8f3b 3bbe f0bb 6111 51bc 2195 9f3c
00000280: e363 d63c df5a 97bc dd62 2c3c cd36 013d
00000290: 8568 a43c 484c d63b 874c e1bb 4a7e babc
000002a0: 1a38 19bc d69f c13b 4b82 5d3b f679 013e
000002b0: 7ed7 143d 9a5c ecbb 2c73 f23d 153b 553e
000002c0: 428f 833d a822 743d cd6b 1e3e 8e81 183e
000002d0: 719b 8fbc 0f94 7d3c 6a70 813c afb2 98bc
000002e0: cb0b 7dba 0cae e13b 3cfc 6ebc 066b 2b3b
000002f0: aeb8 de3c 5898 883b 2bc4 40ba 6b3f d73b
00000300: 812f ff3b 0ffb ce3c b4a9 beb6 569b 173c
00000310: 6588 0d3c e4c1 d53c e56a f3bb fd52 7c3c
00000320: 365e b93b b3fc 1e3d 261a ee3d 9d51 653c
00000330: bcc8 f73b 9ea0 2f3d df05 d83c decb 0a3c
00000340: 3408 9b3c b592 cdba 53de b03c 1e24 3cba
00000350: cdaf b03b 54c5 adba ceaa 183b d6cb 79bb
00000360: bef0 883b 32c9 623b 5069 0a3c 7e43 15bb
00000370: 9cd7 023c 5489 38bb 360e c8bb 1c3d 6bba
00000380: f553 96bc 2383 3cbc 9392 473c f4f0 33bd
00000390: 6917 4ebc 8a2c a93c b7c8 e7b8 301f 43bd
000003a0: bc8f 303c 17ed 3d3c 9c43 84bb 3e22 5dbc
000003b0: 5fb7 b8bb ba4c 9a3b af69 f43b ec49 b0bb
000003c0: 27f3 0cbc d4fb 9abb 9462 8a3c 49aa 313d
000003d0: 88a1 853c 5ff6 d2b8 c36f 033d 6137 233d
000003e0: 750d 083d ca01 3f3d 27f2 043d 70ac ba3c
000003f0: 5440 c5bb 3761 66bd a341 8cbc 1ce6 10bd
0.026270956 -0.013837159 -0.0086586345 0.01683104 0.0064704963 -0.022903293 -0.011736054 -0.023677297
-0.031213121 0.009235376 -0.00061911903 0.021373792 -0.039954443 -0.025949866 0.000845149 0.048219
0.04935715 0.05267605 -0.019174596 -0.012286721 -0.0048658615 -0.00039798132 0.02916148 -0.024539396
0.02373677 -0.027744522 -0.030928703 0.024775602 0.002087778 -0.006050949 0.006878238 -0.057216346
-0.006898199 0.014921182 -0.0016787938 -0.008353855 0.028736193 -0.046782345 -0.031046558 -0.011881461
-0.17390661 -0.04172748 0.0021993786 -0.040308464 -0.02655189 0.030142637 0.01048066 0.019929739
0.023961749 0.039917443 0.028438397 0.0013444475 0.01581049 -0.008256023 -0.00571273 0.002403714
-0.012708635 0.019585464 0.012100979 0.02975243 0.017450048 0.009789188 0.020453703 -0.045168575
-0.021777226 -0.021643411 -0.026246632 -0.008360293 -0.0072481656 -0.01526309 0.0009610934 -0.0065223817
0.021903187 -0.02007071 -0.04068929 0.051067922 0.00050894846 0.009933864 0.060323574 -0.012298279
0.03442265 0.008203127 -0.007910606 -0.02270979 -0.015074562 -0.011537709 -0.0315541 0.0062376596
0.014606902 -0.04678026 0.045256276 0.0019438042 -0.034546174 0.0039237924 0.118896045 0.009100018
0.035082337 -0.044829834 -0.049926817 -0.011806704 -0.031043489 -0.019845163 0.008062532 0.044651475
0.019120887 -0.011287534 0.010631634 -0.029488344 0.0063825822 0.00064026885 -0.020460071 0.0022816686
-0.027676584 0.006576601 0.00068246364 0.013965455 -0.009117728 0.013131038 0.017548766 -0.017682977
-0.007875922 0.17257753 -0.028606536 -0.009400865 0.0033745486 -0.009582792 -0.014525907 -0.013672699
0.01664192 -0.003525198 0.0101971915 -0.017171077 0.032765597 0.0068012183 -0.0068517625 0.030209541
-0.006254932 0.023439072 0.007746567 -0.00174987 -0.021483103 0.00084966316 -0.013829971 -0.013939678
-0.0153866615 -0.06457153 -0.008997918 0.0076347226 0.034255087 -0.022987813 -0.01190831 0.0020247689
-0.019632887 0.012258109 -0.0059995726 -0.0022782953 0.0043746573 -0.007346896 -0.012760491 0.01948029
0.026170677 -0.018475948 0.010521618 0.031546403 0.02006937 0.006539855 -0.006875578 -0.022765297
-0.009351755 0.0059089465 0.0033799584 0.1264418 0.036338322 -0.0072131874 0.118383735 0.2082332
0.06423809 0.059603363 0.1547081 0.14893171 -0.017530175 0.015477194 0.015800674 -0.01863989
-0.00096529414 0.006887203 -0.014586505 0.002615632 0.027187672 0.0041685514 -0.000735345 0.0065688393
0.0077876453 0.025266198 -5.6821973e-06 0.009253344 0.008638476 0.02609343 -0.0074285143 0.015400645
0.005656983 0.03881521 0.11626081 0.013996509 0.007561771 0.042877786 0.026369987 0.008471457
0.01892481 -0.0015683981 0.021590387 -0.0007177013 0.005392051 -0.0013257661 0.0023295167 -0.003811588
0.0041790893 0.0034604785 0.00844796 -0.0022775824 0.007985976 -0.0028158026 -0.0061052097 -0.00089736446
-0.01835058 -0.011505875 0.012180942 -0.043930963 -0.012578824 0.02065112 -0.000110523244 -0.047637165
0.010776456 0.011592171 -0.00403638 -0.0134969335 -0.005637094 0.0047088536 0.0074588875 -0.005379906
-0.008602894 -0.0047297273 0.016892709 0.043375287 0.016312376 -0.000100594705 0.032089006 0.039847735
0.03321596 0.046632566 0.032457497 0.022787303 -0.0060196314 -0.056245055 -0.017121142 -0.0353757

main.2.bias f4 [3]
00000000: 81ba 1dbc 3aa1 0a3c 3446 c139
-0.0096269855 0.008461291 0.00036864134
