generator_A2B.pth (torch, 43968 bytes, 4 tensors)

main.0.weight f4 [64, 3, 3, 3, 3]
-0.040196445 0.007668481 -0.030274978 0.009923541 0.03623297 0.015324489 -0.05623626 0.006722213
-0.02945723 -0.026534533 -0.038270857 0.0025450995 -0.06885116 0.31862134 -0.042334404 -0.10775706
-0.028641934 -0.09056328 -0.0027455823 0.015810115 0.0056337393 -0.0045520137 0.001506125 -0.015760196
-0.010749237 -0.010264071 0.028152173 -0.0042855353 0.016607886 0.008877199 -0.010295784 -0.01745631
-0.001264967 -0.0046817963 -0.0029157123 0.0024737478 0.017053634 -0.049308103 0.037789047 -0.036105804
0.04850822 0.005000415 -0.016805302 0.027933992 -0.0026042382 -0.0096255755 0.01362281 -0.026724903
0.007286272 0.02148399 -0.00069996325 0.036122937 -0.026938213 -0.023474345 -0.023069603 -0.015445181
-0.015318658 0.008541863 0.034516655 0.003380263 -0.028818684 0.023158384 -0.014229292 -0.026467698
0.01773232 0.021944841 0.005873503 -0.043783832 -0.007930358 0.0019975442 0.008324737 -0.037619825
-0.00987846 -0.0353888 -0.017880447 0.029689029 0.01480592 0.030197022 -0.03642827 0.015842516
0.0010752563 0.0012079797 -0.029250812 0.040066216 -0.01111013 -0.050376132 -0.023538528 0.06700017
-0.02404989 0.04723441 -0.001962709 0.08280484 0.04611636 0.07202988 -0.11985802 0.055797327
0.014759051 0.045981675 0.023044506 0.02513673 -0.0033311995 -0.004260249 0.01451332 0.0067207054
0.03298116 0.02881575 -0.027228702 0.029064458 -0.040386114 0.008370752 -0.023092287 -0.017153842
0.024185183 -0.030133335 -0.07683673 -0.0041462444 -0.046745334 0.07928892 -0.007472446 0.04788462
0.029303925 -0.24326767 0.009683798 0.022690685 -0.014762826 -0.006454258 0.027848626 0.036703486
0.017938223 -0.0241485 -0.041081384 -0.021927033 0.015116176 -0.06535184 -0.06516043 0.021317001
-0.010750879 0.055802688 0.017690344 -0.060741603 -0.0067067095 0.07532533 0.010773864 0.056574915
-0.011976243 0.013397914 -0.0022001266 0.012733073 0.20100796 0.003926417 -0.047907624 0.0056433445
-0.0234105 -0.007314238 -0.015559364 -0.0070062857 0.020434875 -0.013405819 0.009165833 0.07565021
0.027112909 0.06298195 -0.01789427 -0.0070057856 -0.0033101933 -0.009086124 -0.003031643 0.0115326075
-0.006316208 -0.0054598516 0.0067924126 -0.03576006 -0.035782106 -0.024384512 -0.04332876 -0.101347566
-0.06875346 -0.024261907 -0.04519624 -0.03865588 -0.007995754 0.0019748302 0.0014455856 -0.0070466404
0.0066677076 -0.0218812 0.012678954 -0.010884951 0.00023303699 0.004988617 0.011003712 0.0064225257
0.0045509576 0.0098005105 0.022899605 0.005164349 0.01165072 0.0049737697 0.022692606 0.030354306
0.039593913 0.07169602 0.054796617 0.08434082 0.050751932 0.07904972 0.083429545 0.0026880766
0.019321943 0.009416822 -0.0021659415 -0.00044101692 0.029806355 -0.0040183505 0.00069414434 0.0013366713
-0.013927119 -0.011636098 -0.0033662382 0.0015099416 0.00084883027 -0.0083375815 0.008143713 -0.020017002
-0.026089447 -0.079342864 -0.04386187 -0.08613697 -0.06332056 -0.03931576 -0.09999321 -0.11201304
-0.06808796 -0.1194412 -0.00975692 -8.414337e-05 -0.037178382 -0.007415456 -0.013052318 -0.034542125
-0.0021984428 -0.0043423553 -0.005602023 -0.12537241 -0.09340805 0.05597109 -0.17210816 -0.17409863
-0.102933474 -0.083544426 -0.09886162 -0.049036726 0.012016549 0.027074449 0.017517762 -0.014061997
00000000: 07a5 24bd e247 fb3b 3b03 f8bc 5996 223c
00000010: 0669 143d 9113 7b3c fe57 66bd 0246 dc3b
00000020: 4a50 f1bc f35e d9bc e7c1 1cbd afcb 263b
00000030: d601 8dbd 5622 a33e d766 2dbd bcaf dcbd
00000040: 7da2 eabc 3e79 b9bd 3aef 33bb 3784 813c
00000050: 3b9b b83b 0f29 95bb 2b69 c53a 871b 81bc
00000060: 911d 30bc a22a 28bc 639f e63c ad6d 8cbb
00000070: 430d 883c ac71 113c a6af 28bc 8900 8fbc
00000080: 40cd a5ba c169 99bb 8915 3fbb 9a1e 223b
00000090: 10b4 8b3c 4bf7 49bd b0c8 1a3d aee3 13bd
000000a0: 8eb0 463d 85da a33b 46ab 89bc d4d5 e43c
000000b0: deab 2abb 97b4 1dbc 3532 5f3c 2fee dabc
000000c0: aec1 ee3b 31ff af3c bd7d 37ba a5f5 133d
000000d0: 87ad dcbc 454d c0bc 77fc bcbc c90d 7dbc
000000e0: 1cfb 7abc 2cf3 0b3c 5661 0d3d 6787 5d3b
000000f0: 2915 ecbc a7b6 bd3c fa21 69bc c9d2 d8bc
00000100: 5f43 913c abc5 b33c 8476 c03b ad56 33bd
00000110: 55ee 01bc 3be9 023b 7a64 083c 3f17 1abd
00000120: 44d9 21bc d9f3 10bd 047a 92bc 6836 f33c
00000130: 8894 723c bf5f f73c cf35 15bd 2ac8 813c
00000140: 9def 8c3a 1355 9e3a 669f efbc 791c 243d
00000150: 4307 36bc 3457 4ebd dfd3 c0bc 6337 893d
00000160: 4604 c5bc de78 413d cba0 00bb 9595 a93d
00000170: 82e4 3c3d 6784 933d 1f78 f5bd bd8b 643d
00000180: f2cf 713c 4857 3c3d d5c7 bc3c 8beb cd3c
00000190: 4150 5abb 8f99 8bbb 47c9 6d3c 5d39 dc3b
000001a0: 4117 073d 020f ec3c ba0e dfbc 9618 ee3c
000001b0: e96b 25bd 7b25 093c 092c bdbc 3786 8cbc
000001c0: 0120 c63c 2fda f6bc 935c 9dbd 38dd 87bb
000001d0: 0978 3fbd 3b62 a23d 6cdb f4bb aa22 443d
000001e0: c90e f03c 291b 79be cba8 1e3c d1e1 b93c
000001f0: c8df 71bc 3e7e d3bb cd22 e43c 6556 163d
00000200: 2ef3 923c 13d3 c5bc f444 28bd 52a0 b3bc
00000210: d6a9 773c 2fd7 85bd d572 85bd fea0 ae3c
00000220: 7424 30bc 5c91 643d 57eb 903c 30cc 78bd
00000230: f5c3 dbbb 2b44 9a3d dc84 303c 19bb 673d
00000240: 0138 44bc ed82 5b3c 0030 10bb 619e 503c
00000250: 08d5 4d3e 2ca9 803b c93a 44bd ceeb b83b
00000260: 60c7 bfbc 47ac efbb b4ec 7ebc fc94 e5bb
00000270: 0a67 a73c 15a4 5bbc 4a2c 163c 7fee 9a3d
00000280: e41b de3c aefc 803d 0197 92bc ca90 e5bb
00000290: d4ef 58bb f7dd 14bc 88ae 46bb 43f3 3c3c
000002a0: 31f8 cebb 8ee8 b2bb e392 de3b 2479 12bd
000002b0: 4290 12bd 07c2 c7bc 7f79 31bd 508f cfbd
000002c0: 9dce 8cbd e8c0 c6bc b11f 39bd a155 1ebd
000002d0: 9f00 03bc 276c 013b ce79 bd3a 81e7 e6bb
000002e0: c97c da3b 3440 b3bc 63bb 4f3c cb56 32bc
000002f0: 645b 7439 8d77 a33b ea48 343c 0d74 d23b
00000300: 3320 953b 5292 203c f497 bb3c b339 a93b
00000310: a9e2 3e3c 01fb a23b d8e5 b93c 98a9 f83c
00000320: 3a2d 223d 5dd5 923d 6b72 603d e1ba ac3d
00000330: 42e1 4f3d d2e4 a13d 1cdd aa3d 712a 303b
00000340: 0d49 9e3c 0449 1a3c 78f2 0dbb 4a38 e7b9
00000350: 752c f43c 5eac 83bb 3df7 353a 3f33 af3a
00000360: 922e 64bc 55a5 3ebc 1b9c 5cbb 3ce9 c53a
00000370: 0984 5e3a 5a9a 08bc 356d 053c b2fa a3bc
00000380: 89b9 d5bc 837e a2bd 81a8 33bd 9468 b0bd
00000390: 36ae 81bd 9009 21bd 3dc9 ccbd 1867 e5bd
000003a0: b371 8bbd 969d f4bd 7ddb 1fbc 2176 b0b8
000003b0: 5c48 18bd 5bfd f2bb 64d9 55bc 0b7c 0dbd
000003c0: c013 10bb 514a 8ebb 2d91 b7bb a061 00be
000003d0: b84c bfbd f141 653d 1f3d 30be e946 32be
000003e0: c9ce d2bd 5719 abbd f677 cabd bcda 48bd
000003f0: 0fe1 443c 3ccb dd3c 6981 8f3c 4a64 66bc

main.0.bias f4 [64]
0.057620462 0.0660087 0.031971477 -0.088191494 -0.060174517 -0.036161095 0.046939015 0.01737994
0.039772976 0.019947007 0.029707475 0.067142926 0.059838705 -0.04966206 0.04809471 0.042484418
0.047007635 0.091720715 0.012937095 0.030492533 0.081453644 0.04222131 0.04446367 0.0687012
0.052971322 0.06299851 0.06209275 0.02885813 0.050648052 0.008436359 0.035140544 0.052357048
0.01165638 0.04119311 0.06671189 0.023677247 -0.12946217 0.07024931 0.05441463 0.022466622
0.03876677 0.034311935 0.07117463 0.010401741 0.052231316 0.02299515 0.0378541 0.07088307
0.03693473 0.051474694 0.062344946 0.008686849 0.019683622 0.0784688 -0.04775141 0.067855954
0.053988222 0.050880827 0.027391177 0.054402005 0.046066172 0.036089804 0.0243837 0.056447696
00000000: 6f03 6c3d 922f 873d 86f4 023d be9d b4bd
00000010: 8e79 76bd a81d 14bd 2043 403d 6060 8e3c
00000020: fde8 223d e867 a33c 175d f33c 3b82 893d
00000030: 6e19 753d 726a 4bbd f5fe 443d 2404 2e3d
00000040: 148b 403d 12d8 bb3d 1cf6 533c 7acb f93c
00000050: 2bd1 a63d 41f0 2c3d 8a1f 363d 37b3 8c3d
00000060: 75f8 583d 5d05 813d f854 7e3d e367 ec3c
00000070: 5574 4f3d a838 0a3c 88ef 0f3d 5874 563d
00000080: 67fa 3e3c 1bba 283d 3ea0 883d c9f6 c13c
00000090: bb91 04be dfde 8f3d e0e1 5e3d ec0b b83c
000000a0: e8c9 1e3d ac8a 0c3d 01c4 913d 106c 2a3c
000000b0: 81f0 553d 5360 bc3c e70c 1b3d 252b 913d
000000c0: df48 173d 21d7 523d 6a5d 7f3d 4953 0e3c
000000d0: 8c3f a13c 40b4 a03d fc96 43bd 10f8 8a3d
000000e0: c122 5d3d 6a68 503d 7663 e03c a3d4 5e3d
000000f0: e2af 3c3d e7d2 133d 53c0 c73c b335 673d

main.2.weight f4 [3, 64, 3, 3, 3]
0.0035257281 -0.013870544 -0.005620276 0.032354858 -0.027243208 -0.029439393 0.013346999 0.03527559
-0.013448314 -0.039135225 -0.05122122 -0.01573542 -0.00663833 -0.19974773 -0.007902139 -0.028899979
-0.01798289 -0.01889994 0.0015676982 0.00524793 -0.00785094 0.009326676 -0.03247724 0.0028095623
-0.0056048064 0.01852466 -0.0042522224 0.025995737 0.000108808184 0.01210113 0.015001311 0.008975763
0.0059935907 0.012354694 0.0019400412 0.0034184542 0.032044448 -0.029921466 -0.0138298515 0.016467182
0.06183277 -0.01287122 0.008181161 -0.051540438 -0.01983316 0.0112783015 -0.0016429106 0.03091369
0.008808574 0.020764511 -0.010975929 0.049826313 0.0134396115 0.018243622 -0.013077778 -0.002804651
0.007982066 -0.010980487 0.021101948 0.0057968018 -0.017715642 0.0062365476 -0.016964491 -0.005419583
0.027896041 0.012566104 0.0073633497 0.15352498 0.05107936 -0.02211704 0.033631314 0.0033531343
-0.010732273 -0.007879607 -0.02877771 0.018812655 -0.0017632492 -0.016388291 -0.010434488 -0.02479339
-0.0077205584 0.011161916 0.01712229 0.024173113 0.0070257834 0.024886148 0.024080494 0.0034752141
0.005114965 0.0021237233 0.0030045519 -9.080901e-06 0.014898034 -0.012074139 0.009009051 0.0061962768
-0.006321495 -0.00761783 0.011574432 0.0018615937 0.059031963 -0.011840421 0.03554992 0.15727472
0.11004217 -0.07419603 0.1355556 0.1452749 -0.075396776 -0.04609325 -0.12041125 0.005855689
0.10241336 0.010403283 0.028515814 0.23765148 0.009475589 -0.01023982 -0.006349838 0.0039777774
-0.00598371 -0.005154447 0.015083899 -0.0030449154 -0.0041597467 -0.018703463 -0.014829021 0.003199101
0.009653445 0.008920875 -0.0026338329 -0.010397644 -0.0029436962 0.00631141 0.0056235115 0.0034520393
0.0078092376 0.018868824 0.014347734 0.019163078 0.019601876 0.007693655 -0.00058559125 -0.00613576
-0.06732204 -0.035247542 -0.119203 -0.07483441 0.01069282 -0.026246173 -0.07114348 -0.0016840236
0.021845562 0.00056490704 0.025365923 -0.0022109605 -0.008754055 0.01742417 0.013310805 -0.0076361354
-0.007891563 0.008427369 0.011960098 0.01603469 0.013877898 0.01514286 -0.029592415 0.024183262
0.0025859769 -0.004510469 0.0025105993 0.016100634 0.028259374 -0.01606613 0.02819496 -0.043207534
0.014720149 -0.00019094096 -0.0004546806 -0.032035608 0.02665819 -0.020462977 -0.017744217 0.0065612597
-0.022722151 -0.01870708 0.011096759 0.007906178 0.0262668 0.028822502 -0.012357242 0.01533881
0.0057479464 0.010926635 0.00019823205 -0.005963227 0.016304584 0.007483257 -0.001052544 -0.0028156857
-0.009130991 -0.0064019 -0.0025939713 -0.015760362 -0.013611195 0.005433879 -0.020823365 -0.05131516
0.007916115 0.058933914 0.017705558 0.0024955517 0.008400703 0.077296086 -0.044568483 -0.06991683
0.031481627 -0.013930136 -0.021224212 -0.01963993 -0.017961169 -0.0043083383 0.035112403 -0.0031253505
0.020937908 0.0024835472 -0.002329005 0.021451687 -0.018445391 0.11631733 0.006159172 -0.012170808
-0.0058255866 -0.009060917 -0.016488902 -0.021540578 0.024424247 -0.02463001 -0.022865335 -0.01580628
0.01014306 -0.007985779 0.0027088039 0.0046882327 -0.009691214 0.028174248 0.011130586 0.012542425
0.0047865384 0.01214688 -0.0049133073 0.0017460089 -0.035895232 -0.019019857 -0.02375427 -0.00065231946
00000000: e70f 673b 4741 63bc 4b2a b8bb 8786 043d
00000010: 262d dfbc e22a f1bc 5fad 5a3c 237d 103d
00000020: 5156 5cbc 424c 20bd 58cd 51bd 91e7 80bc
00000030: 5986 d9bb ab8a 4cbe f977 01bc a6bf ecbc
00000040: db50 93bc 0cd4 9abc 397b cd3a d4f6 ab3b
00000050: 3ba1 00bc eace 183c db06 05bd a220 383b
00000060: 86a8 b7bb 07c1 973c 3a56 8bbb 03f5 d43c
00000070: f32f e438 d143 463c 0fc8 753c 140f 133c
00000080: e265 c43b 586b 4a3c fb48 fe3a 2508 603b
00000090: 0a41 033d dd1d f5bc 9a96 62bc 2fe6 863c
000000a0: 5c44 7d3d cfe1 52bc 470a 063c 111c 53bd
000000b0: 2779 a2bc a0c8 383c ef56 d7ba b53e fd3c
000000c0: d651 103c 561a aa3c 62d4 33bc ad16 4c3d
000000d0: d131 5c3c a673 953c 2d44 56bc 3cce 37bb
000000e0: 36c7 023c 80e7 33bc fedd ac3c 19f3 bd3b
000000f0: 6520 91bc f45b cc3b 1ef9 8abc c296 b1bb
00000100: 3d86 e43c 0fe2 4d3c 4148 f13b a735 1d3e
00000110: 9738 513d cb2e b5bc fdc0 093d 42c0 5b3b
00000120: 6ad6 2fbc 7819 01bc 3bbf ebbc ff1c 9a3c
00000130: d31c e7ba bd40 86bc 6af5 2abc 821b cbbc
00000140: bdfc fcbb 78e0 363c 0b44 8c3c b106 c63c
00000150: 8b38 e63b 09de cb3c 7544 c53c 6bc0 633b
00000160: 709b a73b 2a2e 0b3b 04e8 443b 2c5a 18b7
00000170: e216 743c 9cd2 45bc b39a 133c 230a cb3b
00000180: 8b24 cfbb fd9e f9bb b0a2 3d3c b800 f43a
00000190: 80cb 713d 53fe 41bc cb9c 113d a00c 213e
000001a0: ca5d e13d 17f4 97bd 16cf 0a3e f2c2 143e
000001b0: a069 9abd 47cc 3cbd 2c9a f6bd 14e1 bf3b
000001c0: 18be d13d 8872 2a3c ff99 e93c e95a 733e
000001d0: 803f 1b3c ebc4 27bc 4d12 d0bb 0458 823b
000001e0: ff12 c4bb a3e6 a8bb 7522 773c 348d 47bb
000001f0: 7c4e 88bb 0138 99bc 6cf5 72bc 02a8 513b
00000200: 7c29 1e3c dd28 123c 629c 2cbb e15a 2abc
00000210: 07eb 40bb f2cf ce3b 6f45 b83b 9c3b 623b
00000220: a2e4 ff3b cb92 9a3c c212 6b3c e3fb 9c3c
00000230: 1d94 a03c 0e1b fc3b 5d82 19ba 7c0e c9bb
00000240: 23e0 89bd ba5f 10bd b420 f4bd c842 99bd
00000250: f030 2f3c 3702 d7bc acb3 91bd 75ba dcba
00000260: 77f5 b23c 4516 143a 32cc cf3c c3e5 10bb
00000270: 2b6d 0fbc 22bd 8e3c 9015 5a3c 8c38 fabb
00000280: 9d4b 01bc f312 0a3c 49f4 433c 2f5b 833c
00000290: 2060 633c c219 783c cb6b f2bc fa1b c63c
000002a0: 7e79 293b 8ecc 93bb de88 243b 7ae5 833c
000002b0: 3480 e73c 1e9d 83bc 1ef9 e63c 62fa 30bd
000002c0: c82c 713c 5337 48b9 3262 eeb9 c537 03bd
000002d0: 4762 da3c f9a1 a7bc 525c 91bc d6ff d63b
000002e0: ce23 babc 973f 99bc 2ecf 353c ea88 013c
000002f0: 792d d73c 2b1d ec3c 0876 4abc a24f 7b3c
00000300: 4559 bc3b a105 333c 83dc 4f39 2c67 c3bb
00000310: 3191 853c 1c36 f53b 84f5 89ba 5e87 38bb
00000320: 279a 15bc 08c7 d1bb 9eff 29bb e01b 81bc
00000330: 7d01 5fbc ae0e b23b c395 aabc d82f 52bd
00000340: 98b2 013c b064 713d 3f0b 913c 698c 233b
00000350: 1aa3 093c 694d 9e3d 718d 36bd 8e30 8fbd
00000360: e1f2 003d 3a3b 64bc 66de adbc ebe3 a0bc
00000370: 4d23 93bc f62c 8dbb 06d2 0f3d aed2 4cbb
00000380: fa85 ab3c 02c3 223b 38a2 18bb 73bb af3c
00000390: ca1a 97bc c837 ee3d e1d2 c93b 1268 47bc
000003a0: 90e4 bebb 3e74 14bc bc13 87bc de75 b0bc
000003b0: 5c15 c83c e0c4 c9bc 1550 bbbc 2c7c 81bc
000003c0: 142f 263c c9d6 02bc 3086 313b bf9f 993b
000003d0: e6c7 1ebc aecd e63c 105d 363c be7e 4d3c
000003e0: 65d8 9c3b b503 473c cfff a0bb 56da e43a
000003f0: e106 13bd 88cf 9bbc 5198 c2bc 6b00 2bba

main.2.bias f4 [3]
-0.015330596 0.014145088 -0.0032144606
00000000: 2e2d 7bbc cdc0 673c b3a9 52bb
